…
2020-06-05 12:36:25,145 INFO Saving job outputs to /global/cscratch1/sd/danieltm/ExaTrkX/processed_sparse/train_debugging/train/Training_Example_4/artifacts/Training_Example_4/doublet_gnn
2020-06-05 12:36:25,145 INFO Writing config via pickle to /global/cscratch1/sd/danieltm/ExaTrkX/processed_sparse/train_debugging/train/Training_Example_4/artifacts/Training_Example_4/doublet_gnn/config.pkl
2020-06-05 12:36:25,151 INFO Loaded 500 training samples
2020-06-05 12:36:25,151 INFO Loaded 100 validation samples
2020-06-05 12:36:25,207 INFO Model: 
GNNSegmentClassifier(
  (input_network): Sequential(
    (0): Linear(in_features=3, out_features=64, bias=True)
    (1): LayerNorm((64,), eps=1e-05, elementwise_affine=True)
    (2): Tanh()
  )
  (edge_network): EdgeNetwork(
    (network): Sequential(
      (0): Linear(in_features=128, out_features=64, bias=True)
      (1): LayerNorm((64,), eps=1e-05, elementwise_affine=True)
      (2): Tanh()
      (3): Linear(in_features=64, out_features=64, bias=True)
      (4): LayerNorm((64,), eps=1e-05, elementwise_affine=True)
      (5): Tanh()
      (6): Linear(in_features=64, out_features=64, bias=True)
      (7): LayerNorm((64,), eps=1e-05, elementwise_affine=True)
      (8): Tanh()
      (9): Linear(in_features=64, out_features=1, bias=True)
    )
  )
  (node_network): NodeNetwork(
    (network): Sequential(
      (0): Linear(in_features=192, out_features=64, bias=True)
      (1): LayerNorm((64,), eps=1e-05, elementwise_affine=True)
      (2): Tanh()
      (3): Linear(in_features=64, out_features=64, bias=True)
      (4): LayerNorm((64,), eps=1e-05, elementwise_affine=True)
      (5): Tanh()
      (6): Linear(in_features=64, out_features=64, bias=True)
      (7): LayerNorm((64,), eps=1e-05, elementwise_affine=True)
      (8): Tanh()
      (9): Linear(in_features=64, out_features=64, bias=True)
      (10): LayerNorm((64,), eps=1e-05, elementwise_affine=True)
      (11): Tanh()
    )
  )
)
Parameters: 42753
2020-06-05 12:36:25,207 INFO Epoch 0
    0% of doublets filtered
   20% of doublets filtered
   40% of doublets filtered
   59% of doublets filtered
   79% of doublets filtered
   99% of doublets filtered
  3.8 avg s / sample
Total time: 384.9017159938812
2020-06-05 12:39:00,905 INFO   Training loss: 0.861
2020-06-05 12:39:00,906 INFO   Training time: 155 seconds.
…
2020-06-05 12:51:01,763 INFO Saving job outputs to /global/cscratch1/sd/danieltm/ExaTrkX/processed_sparse/train_debugging/train/Training_Example_4/artifacts/Training_Example_4/triplet_gnn
2020-06-05 12:51:01,763 INFO Writing config via pickle to /global/cscratch1/sd/danieltm/ExaTrkX/processed_sparse/train_debugging/train/Training_Example_4/artifacts/Training_Example_4/triplet_gnn/config.pkl
2020-06-05 12:51:01,767 INFO Loaded 500 training samples
2020-06-05 12:51:01,768 INFO Loaded 100 validation samples
2020-06-05 12:51:01,770 INFO Model: 
GNNSegmentClassifier(
  (input_network): Sequential(
    (0): Linear(in_features=7, out_features=64, bias=True)
    (1): LayerNorm((64,), eps=1e-05, elementwise_affine=True)
    (2): Tanh()
  )
  (edge_network): EdgeNetwork(
    (network): Sequential(
      (0): Linear(in_features=128, out_features=64, bias=True)
      (1): LayerNorm((64,), eps=1e-05, elementwise_affine=True)
      (2): Tanh()
      (3): Linear(in_features=64, out_features=64, bias=True)
      (4): LayerNorm((64,), eps=1e-05, elementwise_affine=True)
      (5): Tanh()
      (6): Linear(in_features=64, out_features=64, bias=True)
      (7): LayerNorm((64,), eps=1e-05, elementwise_affine=True)
      (8): Tanh()
      (9): Linear(in_features=64, out_features=1, bias=True)
    )
  )
  (node_network): NodeNetwork(
    (network): Sequential(
      (0): Linear(in_features=192, out_features=64, bias=True)
      (1): LayerNorm((64,), eps=1e-05, elementwise_affine=True)
      (2): Tanh()
      (3): Linear(in_features=64, out_features=64, bias=True)
      (4): LayerNorm((64,), eps=1e-05, elementwise_affine=True)
      (5): Tanh()
      (6): Linear(in_features=64, out_features=64, bias=True)
      (7): LayerNorm((64,), eps=1e-05, elementwise_affine=True)
      (8): Tanh()
      (9): Linear(in_features=64, out_features=64, bias=True)
      (10): LayerNorm((64,), eps=1e-05, elementwise_affine=True)
      (11): Tanh()
    )
  )
)
Parameters: 43009
2020-06-05 12:51:01,770 INFO Epoch 0
--------------------- 
 Training triplets... 
--------------------
2020-06-05 12:52:48,199 INFO   Training loss: 0.279
2020-06-05 12:52:48,200 INFO   Training time: 106 seconds.
2020-06-05 12:52:57,083 INFO   Validation loss: 0.127, acc: 0.948, pur: 0.870, eff: 0.954.
2020-06-05 12:52:57,092 INFO Epoch 1
…
